…
epoch_num                  : 1000
debug_iter                 : -1
ignore_testing             : True
ignore_validation          : False
shuffle                    : True
opt_type                   : AdamW
lr                         : 1e-05
max_grad_norm              : None
weight_decay               : 0.01
plot_pred_points           : True
fix_randomness             : True
random_seed                : 123
user                       : xxx
hostname                   : xxxx
exp_name                   : 
ts                         : 2023-06-02T16-10-23.471301

Net(
  (bert_model): T5Stack(
    (embed_tokens): Embedding(32234, 512)
    (block): ModuleList(
      (0): T5Block(
        (layer): ModuleList(
          (0): T5LayerSelfAttention(
            (SelfAttention): T5Attention(
              (q): Linear(in_features=512, out_features=512, bias=False)
              (k): Linear(in_features=512, out_features=512, bias=False)
              (v): Linear(in_features=512, out_features=512, bias=False)
              (o): Linear(in_features=512, out_features=512, bias=False)
              (relative_attention_bias): Embedding(32, 8)
            )
            (layer_norm): T5LayerNorm()
            (dropout): Dropout(p=0.1, inplace=False)
          )
          (1): T5LayerFF(
            (DenseReluDense): T5DenseActDense(
              (wi): Linear(in_features=512, out_features=2048, bias=False)
              (wo): Linear(in_features=2048, out_features=512, bias=False)
              (dropout): Dropout(p=0.1, inplace=False)
              (act): ReLU()
            )
            (layer_norm): T5LayerNorm()
            (dropout): Dropout(p=0.1, inplace=False)
          )
        )
      )
      (1): T5Block(
        (layer): ModuleList(
          (0): T5LayerSelfAttention(
            (SelfAttention): T5Attention(
              (q): Linear(in_features=512, out_features=512, bias=False)
              (k): Linear(in_features=512, out_features=512, bias=False)
              (v): Linear(in_features=512, out_features=512, bias=False)
              (o): Linear(in_features=512, out_features=512, bias=False)
            )
            (layer_norm): T5LayerNorm()
            (dropout): Dropout(p=0.1, inplace=False)
          )
          (1): T5LayerFF(
            (DenseReluDense): T5DenseActDense(
              (wi): Linear(in_features=512, out_features=2048, bias=False)
              (wo): Linear(in_features=2048, out_features=512, bias=False)
              (dropout): Dropout(p=0.1, inplace=False)
              (act): ReLU()
            )
            (layer_norm): T5LayerNorm()
            (dropout): Dropout(p=0.1, inplace=False)
          )
        )
      )
      (2): T5Block(
        (layer): ModuleList(
          (0): T5LayerSelfAttention(
            (SelfAttention): T5Attention(
              (q): Linear(in_features=512, out_features=512, bias=False)
              (k): Linear(in_features=512, out_features=512, bias=False)
              (v): Linear(in_features=512, out_features=512, bias=False)
              (o): Linear(in_features=512, out_features=512, bias=False)
            )
            (layer_norm): T5LayerNorm()
            (dropout): Dropout(p=0.1, inplace=False)
          )
          (1): T5LayerFF(
            (DenseReluDense): T5DenseActDense(
              (wi): Linear(in_features=512, out_features=2048, bias=False)
              (wo): Linear(in_features=2048, out_features=512, bias=False)
              (dropout): Dropout(p=0.1, inplace=False)
              (act): ReLU()
            )
            (layer_norm): T5LayerNorm()
            (dropout): Dropout(p=0.1, inplace=False)
          )
        )
      )
      (3): T5Block(
        (layer): ModuleList(
          (0): T5LayerSelfAttention(
            (SelfAttention): T5Attention(
              (q): Linear(in_features=512, out_features=512, bias=False)
              (k): Linear(in_features=512, out_features=512, bias=False)
              (v): Linear(in_features=512, out_features=512, bias=False)
              (o): Linear(in_features=512, out_features=512, bias=False)
            )
            (layer_norm): T5LayerNorm()
            (dropout): Dropout(p=0.1, inplace=False)
          )
          (1): T5LayerFF(
            (DenseReluDense): T5DenseActDense(
              (wi): Linear(in_features=512, out_features=2048, bias=False)
              (wo): Linear(in_features=2048, out_features=512, bias=False)
              (dropout): Dropout(p=0.1, inplace=False)
              (act): ReLU()
            )
            (layer_norm): T5LayerNorm()
            (dropout): Dropout(p=0.1, inplace=False)
          )
        )
      )
      (4): T5Block(
        (layer): ModuleList(
          (0): T5LayerSelfAttention(
            (SelfAttention): T5Attention(
              (q): Linear(in_features=512, out_features=512, bias=False)
              (k): Linear(in_features=512, out_features=512, bias=False)
              (v): Linear(in_features=512, out_features=512, bias=False)
              (o): Linear(in_features=512, out_features=512, bias=False)
            )
            (layer_norm): T5LayerNorm()
            (dropout): Dropout(p=0.1, inplace=False)
          )
          (1): T5LayerFF(
            (DenseReluDense): T5DenseActDense(
              (wi): Linear(in_features=512, out_features=2048, bias=False)
              (wo): Linear(in_features=2048, out_features=512, bias=False)
              (dropout): Dropout(p=0.1, inplace=False)
              (act): ReLU()
            )
            (layer_norm): T5LayerNorm()
            (dropout): Dropout(p=0.1, inplace=False)
          )
        )
      )
      (5): T5Block(
        (layer): ModuleList(
          (0): T5LayerSelfAttention(
            (SelfAttention): T5Attention(
              (q): Linear(in_features=512, out_features=512, bias=False)
              (k): Linear(in_features=512, out_features=512, bias=False)
              (v): Linear(in_features=512, out_features=512, bias=False)
              (o): Linear(in_features=512, out_features=512, bias=False)
            )
            (layer_norm): T5LayerNorm()
            (dropout): Dropout(p=0.1, inplace=False)
          )
          (1): T5LayerFF(
            (DenseReluDense): T5DenseActDense(
              (wi): Linear(in_features=512, out_features=2048, bias=False)
              (wo): Linear(in_features=2048, out_features=512, bias=False)
              (dropout): Dropout(p=0.1, inplace=False)
              (act): ReLU()
            )
            (layer_norm): T5LayerNorm()
            (dropout): Dropout(p=0.1, inplace=False)
          )
        )
      )
    )
    (final_layer_norm): T5LayerNorm()
    (dropout): Dropout(p=0.1, inplace=False)
  )
  (conv_first): MLP(
    (activation): ELU(alpha=1.0)
    (layers): ModuleList(
      (0): Linear(in_features=512, out_features=256, bias=True)
      (1): Linear(in_features=256, out_features=128, bias=True)
      (2): Linear(in_features=128, out_features=512, bias=True)
    )
  )
  (conv_layers): ModuleList(
    (0): TransformerConv(512, 512, heads=1)
    (1): TransformerConv(512, 512, heads=1)
    (2): TransformerConv(512, 512, heads=1)
    (3): TransformerConv(512, 512, heads=1)
    (4): TransformerConv(512, 512, heads=1)
    (5): TransformerConv(512, 512, heads=1)
    (6): TransformerConv(512, 512, heads=1)
  )
  (jkn): JumpingKnowledge(max)
  (gate_nn): Sequential(
    (0): Linear(in_features=512, out_features=512, bias=True)
    (1): ReLU()
    (2): Linear(in_features=512, out_features=1, bias=True)
  )
  (glob): MyGlobalAttention(gate_nn=Sequential(
    (0): Linear(in_features=512, out_features=512, bias=True)
    (1): ReLU()
    (2): Linear(in_features=512, out_features=1, bias=True)
  ), nn=None)
  (loss_function): MSELoss()
  (MLPs): ModuleDict(
    (perf): MLP(
      (activation): ELU(alpha=1.0)
      (layers): ModuleList(
        (0): Linear(in_features=512, out_features=256, bias=True)
        (1): Linear(in_features=256, out_features=128, bias=True)
        (2): Linear(in_features=128, out_features=64, bias=True)
        (3): Linear(in_features=64, out_features=32, bias=True)
        (4): Linear(in_features=32, out_features=16, bias=True)
        (5): Linear(in_features=16, out_features=1, bias=True)
      )
    )
    (util-LUT): MLP(
      (activation): ELU(alpha=1.0)
      (layers): ModuleList(
        (0): Linear(in_features=512, out_features=256, bias=True)
        (1): Linear(in_features=256, out_features=128, bias=True)
        (2): Linear(in_features=128, out_features=64, bias=True)
        (3): Linear(in_features=64, out_features=32, bias=True)
        (4): Linear(in_features=32, out_features=16, bias=True)
        (5): Linear(in_features=16, out_features=1, bias=True)
      )
    )
    (util-FF): MLP(
      (activation): ELU(alpha=1.0)
      (layers): ModuleList(
        (0): Linear(in_features=512, out_features=256, bias=True)
        (1): Linear(in_features=256, out_features=128, bias=True)
        (2): Linear(in_features=128, out_features=64, bias=True)
        (3): Linear(in_features=64, out_features=32, bias=True)
        (4): Linear(in_features=32, out_features=16, bias=True)
        (5): Linear(in_features=16, out_features=1, bias=True)
      )
    )
    (util-DSP): MLP(
      (activation): ELU(alpha=1.0)
      (layers): ModuleList(
        (0): Linear(in_features=512, out_features=256, bias=True)
        (1): Linear(in_features=256, out_features=128, bias=True)
        (2): Linear(in_features=128, out_features=64, bias=True)
        (3): Linear(in_features=64, out_features=32, bias=True)
        (4): Linear(in_features=32, out_features=16, bias=True)
        (5): Linear(in_features=16, out_features=1, bias=True)
      )
    )
    (util-BRAM): MLP(
      (activation): ELU(alpha=1.0)
      (layers): ModuleList(
        (0): Linear(in_features=512, out_features=256, bias=True)
        (1): Linear(in_features=256, out_features=128, bias=True)
        (2): Linear(in_features=128, out_features=64, bias=True)
        (3): Linear(in_features=64, out_features=32, bias=True)
        (4): Linear(in_features=32, out_features=16, bias=True)
        (5): Linear(in_features=16, out_features=1, bias=True)
      )
    )
  )
)
