…
shuffle                    : True
opt_type                   : AdamW
lr                         : 0.0001
max_grad_norm              : None
weight_decay               : 0.01
plot_pred_points           : True
fix_randomness             : True
random_seed                : 123
user                       : xxx
hostname                   : xxxx
exp_name                   : 
ts                         : 2023-05-30T22-45-11.537613

Net(
  (conv_first): TransformerConv(150, 512, heads=1)
  (conv_layers): ModuleList(
    (0): TransformerConv(512, 512, heads=1)
  )
  (jkn): JumpingKnowledge(max)
  (gate_nn): Sequential(
    (0): Linear(in_features=512, out_features=512, bias=True)
    (1): ReLU()
    (2): Linear(in_features=512, out_features=1, bias=True)
  )
  (glob): MyGlobalAttention(gate_nn=Sequential(
    (0): Linear(in_features=512, out_features=512, bias=True)
    (1): ReLU()
    (2): Linear(in_features=512, out_features=1, bias=True)
  ), nn=None)
  (loss_function): CrossEntropyLoss()
  (MLPs): ModuleDict(
    (perf): MLP(
      (activation): ELU(alpha=1.0)
      (layers): ModuleList(
        (0): Linear(in_features=512, out_features=256, bias=True)
        (1): Linear(in_features=256, out_features=128, bias=True)
        (2): Linear(in_features=128, out_features=64, bias=True)
        (3): Linear(in_features=64, out_features=32, bias=True)
        (4): Linear(in_features=32, out_features=16, bias=True)
        (5): Linear(in_features=16, out_features=2, bias=True)
      )
    )
  )
)
